…
I0119 10:41:02.000370 22661 net.cpp:275] The NetState phase (0) differed from the phase (1) specified by a rule in layer mnist
I0119 10:41:02.000390 22661 net.cpp:275] The NetState phase (0) differed from the phase (1) specified by a rule in layer accuracy
I0119 10:41:02.000473 22661 net.cpp:39] Initializing net from parameters: 
name: "LeNet"
layers {
  top: "data"
  top: "label"
  name: "mnist"
  type: DATA
  data_param {
    source: "examples/mnist/mnist_train_lmdb"
    batch_size: 64
    backend: LMDB
  }
  include {
    phase: TRAIN
  }
  transform_param {
    scale: 0.00390625
  }
}
layers {
  bottom: "data"
  top: "conv1"
  name: "conv1"
  type: CONVOLUTION
  blobs_lr: 1
  blobs_lr: 2
  convolution_param {
    num_output: 20
    kernel_size: 5
    stride: 1
    weight_filler {
      type: "xavier"
    }
    bias_filler {
      type: "constant"
    }
  }
}
layers {
  bottom: "conv1"
  top: "pool1"
  name: "pool1"
  type: POOLING
  pooling_param {
    pool: MAX
    kernel_size: 2
    stride: 2
  }
}
layers {
  bottom: "pool1"
  top: "conv2"
  name: "conv2"
  type: CONVOLUTION
  blobs_lr: 1
  blobs_lr: 2
  convolution_param {
    num_output: 50
    kernel_size: 5
    stride: 1
    weight_filler {
      type: "xavier"
    }
    bias_filler {
      type: "constant"
    }
  }
}
layers {
  bottom: "conv2"
  top: "pool2"
  name: "pool2"
  type: POOLING
  pooling_param {
    pool: MAX
    kernel_size: 2
    stride: 2
  }
}
layers {
  bottom: "pool2"
  top: "ip1"
  name: "ip1"
  type: INNER_PRODUCT
  blobs_lr: 1
  blobs_lr: 2
  inner_product_param {
    num_output: 500
    weight_filler {
      type: "xavier"
    }
    bias_filler {
      type: "constant"
    }
  }
}
layers {
  bottom: "ip1"
  top: "ip1"
  name: "relu1"
  type: RELU
}
layers {
  bottom: "ip1"
  top: "ip2"
  name: "ip2"
  type: INNER_PRODUCT
  blobs_lr: 1
  blobs_lr: 2
  inner_product_param {
    num_output: 10
    weight_filler {
      type: "xavier"
    }
    bias_filler {
      type: "constant"
    }
  }
}
layers {
  bottom: "ip2"
  bottom: "label"
  top: "loss"
  name: "loss"
  type: SOFTMAX_LOSS
}
state {
  phase: TRAIN
}
I0119 10:41:02.000537 22661 net.cpp:67] Creating Layer mnist
I0119 10:41:02.000548 22661 net.cpp:356] mnist -> data
I0119 10:41:02.000569 22661 net.cpp:356] mnist -> label
I0119 10:41:02.000582 22661 net.cpp:96] Setting up mnist
I0119 10:41:02.009002 22661 data_layer.cpp:68] Opening lmdb examples/mnist/mnist_train_lmdb
I0119 10:41:02.009039 22661 data_layer.cpp:128] output data size: 64,1,28,28
I0119 10:41:02.009219 22661 net.cpp:103] Top shape: 64 1 28 28 (50176)
I0119 10:41:02.009232 22661 net.cpp:103] Top shape: 64 1 1 1 (64)
I0119 10:41:02.009248 22661 net.cpp:67] Creating Layer conv1
I0119 10:41:02.009254 22661 net.cpp:394] conv1 <- data
I0119 10:41:02.009268 22661 net.cpp:356] conv1 -> conv1
I0119 10:41:02.009284 22661 net.cpp:96] Setting up conv1
I0119 10:41:02.009899 22661 net.cpp:103] Top shape: 64 20 24 24 (737280)
I0119 10:41:02.009934 22661 net.cpp:67] Creating Layer pool1
I0119 10:41:02.009943 22661 net.cpp:394] pool1 <- conv1
I0119 10:41:02.009954 22661 net.cpp:356] pool1 -> pool1
I0119 10:41:02.009963 22661 net.cpp:96] Setting up pool1
I0119 10:41:02.009976 22661 net.cpp:103] Top shape: 64 20 12 12 (184320)
I0119 10:41:02.009984 22661 net.cpp:67] Creating Layer conv2
I0119 10:41:02.009989 22661 net.cpp:394] conv2 <- pool1
I0119 10:41:02.009999 22661 net.cpp:356] conv2 -> conv2
I0119 10:41:02.010009 22661 net.cpp:96] Setting up conv2
I0119 10:41:02.010324 22661 net.cpp:103] Top shape: 64 50 8 8 (204800)
I0119 10:41:02.010361 22661 net.cpp:67] Creating Layer pool2
I0119 10:41:02.010368 22661 net.cpp:394] pool2 <- conv2
I0119 10:41:02.010376 22661 net.cpp:356] pool2 -> pool2
I0119 10:41:02.010387 22661 net.cpp:96] Setting up pool2
I0119 10:41:02.010393 22661 net.cpp:103] Top shape: 64 50 4 4 (51200)
I0119 10:41:02.010401 22661 net.cpp:67] Creating Layer ip1
I0119 10:41:02.010406 22661 net.cpp:394] ip1 <- pool2
I0119 10:41:02.010413 22661 net.cpp:356] ip1 -> ip1
I0119 10:41:02.010421 22661 net.cpp:96] Setting up ip1
I0119 10:41:02.015100 22661 net.cpp:103] Top shape: 64 500 1 1 (32000)
I0119 10:41:02.015121 22661 net.cpp:67] Creating Layer relu1
I0119 10:41:02.015127 22661 net.cpp:394] relu1 <- ip1
I0119 10:41:02.015135 22661 net.cpp:345] relu1 -> ip1 (in-place)
I0119 10:41:02.015142 22661 net.cpp:96] Setting up relu1
I0119 10:41:02.015149 22661 net.cpp:103] Top shape: 64 500 1 1 (32000)
I0119 10:41:02.015161 22661 net.cpp:67] Creating Layer ip2
I0119 10:41:02.015166 22661 net.cpp:394] ip2 <- ip1
I0119 10:41:02.015172 22661 net.cpp:356] ip2 -> ip2
I0119 10:41:02.015180 22661 net.cpp:96] Setting up ip2
I0119 10:41:02.015257 22661 net.cpp:103] Top shape: 64 10 1 1 (640)
I0119 10:41:02.015279 22661 net.cpp:67] Creating Layer loss
I0119 10:41:02.015287 22661 net.cpp:394] loss <- ip2
I0119 10:41:02.015293 22661 net.cpp:394] loss <- label
I0119 10:41:02.015303 22661 net.cpp:356] loss -> loss
I0119 10:41:02.015312 22661 net.cpp:96] Setting up loss
I0119 10:41:02.015327 22661 net.cpp:103] Top shape: 1 1 1 1 (1)
I0119 10:41:02.015336 22661 net.cpp:109]     with loss weight 1
I0119 10:41:02.015362 22661 net.cpp:170] loss needs backward computation.
I0119 10:41:02.015367 22661 net.cpp:170] ip2 needs backward computation.
I0119 10:41:02.015372 22661 net.cpp:170] relu1 needs backward computation.
I0119 10:41:02.015377 22661 net.cpp:170] ip1 needs backward computation.
I0119 10:41:02.015380 22661 net.cpp:170] pool2 needs backward computation.
…
I0119 10:41:02.016021 22661 solver.cpp:151] Creating test net (#0) specified by net file: examples/mnist/lenet_train_test.prototxt
I0119 10:41:02.016052 22661 net.cpp:275] The NetState phase (1) differed from the phase (0) specified by a rule in layer mnist
I0119 10:41:02.016154 22661 net.cpp:39] Initializing net from parameters: 
name: "LeNet"
layers {
  top: "data"
  top: "label"
  name: "mnist"
  type: DATA
  data_param {
    source: "examples/mnist/mnist_test_lmdb"
    batch_size: 100
    backend: LMDB
  }
  include {
    phase: TEST
  }
  transform_param {
    scale: 0.00390625
  }
}
layers {
  bottom: "data"
  top: "conv1"
  name: "conv1"
  type: CONVOLUTION
  blobs_lr: 1
  blobs_lr: 2
  convolution_param {
    num_output: 20
    kernel_size: 5
    stride: 1
    weight_filler {
      type: "xavier"
    }
    bias_filler {
      type: "constant"
    }
  }
}
layers {
  bottom: "conv1"
  top: "pool1"
  name: "pool1"
  type: POOLING
  pooling_param {
    pool: MAX
    kernel_size: 2
    stride: 2
  }
}
layers {
  bottom: "pool1"
  top: "conv2"
  name: "conv2"
  type: CONVOLUTION
  blobs_lr: 1
  blobs_lr: 2
  convolution_param {
    num_output: 50
    kernel_size: 5
    stride: 1
    weight_filler {
      type: "xavier"
    }
    bias_filler {
      type: "constant"
    }
  }
}
layers {
  bottom: "conv2"
  top: "pool2"
  name: "pool2"
  type: POOLING
  pooling_param {
    pool: MAX
    kernel_size: 2
    stride: 2
  }
}
layers {
  bottom: "pool2"
  top: "ip1"
  name: "ip1"
  type: INNER_PRODUCT
  blobs_lr: 1
  blobs_lr: 2
  inner_product_param {
    num_output: 500
    weight_filler {
      type: "xavier"
    }
    bias_filler {
      type: "constant"
    }
  }
}
layers {
  bottom: "ip1"
  top: "ip1"
  name: "relu1"
  type: RELU
}
layers {
  bottom: "ip1"
  top: "ip2"
  name: "ip2"
  type: INNER_PRODUCT
  blobs_lr: 1
  blobs_lr: 2
  inner_product_param {
    num_output: 10
    weight_filler {
      type: "xavier"
    }
    bias_filler {
      type: "constant"
    }
  }
}
layers {
  bottom: "ip2"
  bottom: "label"
  top: "accuracy"
  name: "accuracy"
  type: ACCURACY
  include {
    phase: TEST
  }
}
layers {
  bottom: "ip2"
  bottom: "label"
  top: "loss"
  name: "loss"
  type: SOFTMAX_LOSS
}
state {
  phase: TEST
}
I0119 10:41:02.016255 22661 net.cpp:67] Creating Layer mnist
I0119 10:41:02.016264 22661 net.cpp:356] mnist -> data
I0119 10:41:02.016279 22661 net.cpp:356] mnist -> label
I0119 10:41:02.016300 22661 net.cpp:96] Setting up mnist
I0119 10:41:02.019279 22661 data_layer.cpp:68] Opening lmdb examples/mnist/mnist_test_lmdb
I0119 10:41:02.019305 22661 data_layer.cpp:128] output data size: 100,1,28,28
I0119 10:41:02.019525 22661 net.cpp:103] Top shape: 100 1 28 28 (78400)
I0119 10:41:02.019536 22661 net.cpp:103] Top shape: 100 1 1 1 (100)
I0119 10:41:02.019546 22661 net.cpp:67] Creating Layer label_mnist_1_split
I0119 10:41:02.019551 22661 net.cpp:394] label_mnist_1_split <- label
I0119 10:41:02.019558 22661 net.cpp:356] label_mnist_1_split -> label_mnist_1_split_0
I0119 10:41:02.019570 22661 net.cpp:356] label_mnist_1_split -> label_mnist_1_split_1
I0119 10:41:02.019578 22661 net.cpp:96] Setting up label_mnist_1_split
I0119 10:41:02.019592 22661 net.cpp:103] Top shape: 100 1 1 1 (100)
I0119 10:41:02.019598 22661 net.cpp:103] Top shape: 100 1 1 1 (100)
I0119 10:41:02.019605 22661 net.cpp:67] Creating Layer conv1
I0119 10:41:02.019609 22661 net.cpp:394] conv1 <- data
I0119 10:41:02.019620 22661 net.cpp:356] conv1 -> conv1
I0119 10:41:02.019629 22661 net.cpp:96] Setting up conv1
I0119 10:41:02.019655 22661 net.cpp:103] Top shape: 100 20 24 24 (1152000)
I0119 10:41:02.019675 22661 net.cpp:67] Creating Layer pool1
I0119 10:41:02.019701 22661 net.cpp:394] pool1 <- conv1
I0119 10:41:02.019711 22661 net.cpp:356] pool1 -> pool1
I0119 10:41:02.019718 22661 net.cpp:96] Setting up pool1
I0119 10:41:02.019726 22661 net.cpp:103] Top shape: 100 20 12 12 (288000)
I0119 10:41:02.019740 22661 net.cpp:67] Creating Layer conv2
I0119 10:41:02.019745 22661 net.cpp:394] conv2 <- pool1
I0119 10:41:02.019752 22661 net.cpp:356] conv2 -> conv2
I0119 10:41:02.019760 22661 net.cpp:96] Setting up conv2
I0119 10:41:02.020081 22661 net.cpp:103] Top shape: 100 50 8 8 (320000)
I0119 10:41:02.020107 22661 net.cpp:67] Creating Layer pool2
I0119 10:41:02.020115 22661 net.cpp:394] pool2 <- conv2
I0119 10:41:02.020125 22661 net.cpp:356] pool2 -> pool2
I0119 10:41:02.020133 22661 net.cpp:96] Setting up pool2
I0119 10:41:02.020139 22661 net.cpp:103] Top shape: 100 50 4 4 (80000)
I0119 10:41:02.020150 22661 net.cpp:67] Creating Layer ip1
I0119 10:41:02.020155 22661 net.cpp:394] ip1 <- pool2
I0119 10:41:02.020162 22661 net.cpp:356] ip1 -> ip1
I0119 10:41:02.020176 22661 net.cpp:96] Setting up ip1
I0119 10:41:02.025061 22661 net.cpp:103] Top shape: 100 500 1 1 (50000)
I0119 10:41:02.025085 22661 net.cpp:67] Creating Layer relu1
I0119 10:41:02.025090 22661 net.cpp:394] relu1 <- ip1
I0119 10:41:02.025100 22661 net.cpp:345] relu1 -> ip1 (in-place)
I0119 10:41:02.025109 22661 net.cpp:96] Setting up relu1
I0119 10:41:02.025113 22661 net.cpp:103] Top shape: 100 500 1 1 (50000)
I0119 10:41:02.025120 22661 net.cpp:67] Creating Layer ip2
I0119 10:41:02.025125 22661 net.cpp:394] ip2 <- ip1
I0119 10:41:02.025137 22661 net.cpp:356] ip2 -> ip2
I0119 10:41:02.025145 22661 net.cpp:96] Setting up ip2
I0119 10:41:02.025213 22661 net.cpp:103] Top shape: 100 10 1 1 (1000)
I0119 10:41:02.025228 22661 net.cpp:67] Creating Layer ip2_ip2_0_split
I0119 10:41:02.025233 22661 net.cpp:394] ip2_ip2_0_split <- ip2
I0119 10:41:02.025240 22661 net.cpp:356] ip2_ip2_0_split -> ip2_ip2_0_split_0
I0119 10:41:02.025267 22661 net.cpp:356] ip2_ip2_0_split -> ip2_ip2_0_split_1
I0119 10:41:02.025279 22661 net.cpp:96] Setting up ip2_ip2_0_split
I0119 10:41:02.025285 22661 net.cpp:103] Top shape: 100 10 1 1 (1000)
I0119 10:41:02.025290 22661 net.cpp:103] Top shape: 100 10 1 1 (1000)
I0119 10:41:02.025295 22661 net.cpp:67] Creating Layer accuracy
I0119 10:41:02.025300 22661 net.cpp:394] accuracy <- ip2_ip2_0_split_0
I0119 10:41:02.025306 22661 net.cpp:394] accuracy <- label_mnist_1_split_0
I0119 10:41:02.025313 22661 net.cpp:356] accuracy -> accuracy
I0119 10:41:02.025321 22661 net.cpp:96] Setting up accuracy
I0119 10:41:02.025331 22661 net.cpp:103] Top shape: 1 1 1 1 (1)
I0119 10:41:02.025341 22661 net.cpp:67] Creating Layer loss
I0119 10:41:02.025346 22661 net.cpp:394] loss <- ip2_ip2_0_split_1
I0119 10:41:02.025352 22661 net.cpp:394] loss <- label_mnist_1_split_1
I0119 10:41:02.025357 22661 net.cpp:356] loss -> loss
I0119 10:41:02.025364 22661 net.cpp:96] Setting up loss
I0119 10:41:02.025374 22661 net.cpp:103] Top shape: 1 1 1 1 (1)
I0119 10:41:02.025379 22661 net.cpp:109]     with loss weight 1
I0119 10:41:02.025388 22661 net.cpp:170] loss needs backward computation.
I0119 10:41:02.025393 22661 net.cpp:172] accuracy does not need backward computation.
I0119 10:41:02.025396 22661 net.cpp:170] ip2_ip2_0_split needs backward computation.
I0119 10:41:02.025400 22661 net.cpp:170] ip2 needs backward computation.
I0119 10:41:02.025404 22661 net.cpp:170] relu1 needs backward computation.
…
